<?xml version="1.0" ?>
<net name="arts_model_40000" version="10">
	<layers>
		<layer id="0" name="input.1" type="Parameter" version="opset1">
			<data element_type="f32" shape="40000,10"/>
			<output>
				<port id="0" precision="FP32">
					<dim>40000</dim>
					<dim>10</dim>
				</port>
			</output>
		</layer>
		<layer id="1" name="6/1_port_transpose238_const" type="Const" version="opset1">
			<data element_type="f32" offset="0" shape="32,10" size="1280"/>
			<output>
				<port id="1" precision="FP32">
					<dim>32</dim>
					<dim>10</dim>
				</port>
			</output>
		</layer>
		<layer id="2" name="6" type="MatMul" version="opset1">
			<data transpose_a="False" transpose_b="True"/>
			<input>
				<port id="0">
					<dim>40000</dim>
					<dim>10</dim>
				</port>
				<port id="1">
					<dim>32</dim>
					<dim>10</dim>
				</port>
			</input>
			<output>
				<port id="2" precision="FP32">
					<dim>40000</dim>
					<dim>32</dim>
				</port>
			</output>
		</layer>
		<layer id="3" name="7" type="Tanh" version="opset1">
			<input>
				<port id="0">
					<dim>40000</dim>
					<dim>32</dim>
				</port>
			</input>
			<output>
				<port id="1" precision="FP32">
					<dim>40000</dim>
					<dim>32</dim>
				</port>
			</output>
		</layer>
		<layer id="4" name="9/1_port_transpose230_const" type="Const" version="opset1">
			<data element_type="f32" offset="1280" shape="32,32" size="4096"/>
			<output>
				<port id="1" precision="FP32">
					<dim>32</dim>
					<dim>32</dim>
				</port>
			</output>
		</layer>
		<layer id="5" name="9" type="MatMul" version="opset1">
			<data transpose_a="False" transpose_b="True"/>
			<input>
				<port id="0">
					<dim>40000</dim>
					<dim>32</dim>
				</port>
				<port id="1">
					<dim>32</dim>
					<dim>32</dim>
				</port>
			</input>
			<output>
				<port id="2" precision="FP32">
					<dim>40000</dim>
					<dim>32</dim>
				</port>
			</output>
		</layer>
		<layer id="6" name="10" type="Tanh" version="opset1">
			<input>
				<port id="0">
					<dim>40000</dim>
					<dim>32</dim>
				</port>
			</input>
			<output>
				<port id="1" precision="FP32">
					<dim>40000</dim>
					<dim>32</dim>
				</port>
			</output>
		</layer>
		<layer id="7" name="12/1_port_transpose234_const" type="Const" version="opset1">
			<data element_type="f32" offset="5376" shape="32,32" size="4096"/>
			<output>
				<port id="1" precision="FP32">
					<dim>32</dim>
					<dim>32</dim>
				</port>
			</output>
		</layer>
		<layer id="8" name="12" type="MatMul" version="opset1">
			<data transpose_a="False" transpose_b="True"/>
			<input>
				<port id="0">
					<dim>40000</dim>
					<dim>32</dim>
				</port>
				<port id="1">
					<dim>32</dim>
					<dim>32</dim>
				</port>
			</input>
			<output>
				<port id="2" precision="FP32">
					<dim>40000</dim>
					<dim>32</dim>
				</port>
			</output>
		</layer>
		<layer id="9" name="13" type="Tanh" version="opset1">
			<input>
				<port id="0">
					<dim>40000</dim>
					<dim>32</dim>
				</port>
			</input>
			<output>
				<port id="1" precision="FP32">
					<dim>40000</dim>
					<dim>32</dim>
				</port>
			</output>
		</layer>
		<layer id="10" name="15/1_port_transpose242_const" type="Const" version="opset1">
			<data element_type="f32" offset="9472" shape="3,32" size="384"/>
			<output>
				<port id="1" precision="FP32">
					<dim>3</dim>
					<dim>32</dim>
				</port>
			</output>
		</layer>
		<layer id="11" name="15" type="MatMul" version="opset1">
			<data transpose_a="False" transpose_b="True"/>
			<input>
				<port id="0">
					<dim>40000</dim>
					<dim>32</dim>
				</port>
				<port id="1">
					<dim>3</dim>
					<dim>32</dim>
				</port>
			</input>
			<output>
				<port id="2" precision="FP32">
					<dim>40000</dim>
					<dim>3</dim>
				</port>
			</output>
		</layer>
		<layer id="12" name="16" type="Sigmoid" version="opset1">
			<input>
				<port id="0">
					<dim>40000</dim>
					<dim>3</dim>
				</port>
			</input>
			<output>
				<port id="1" precision="FP32">
					<dim>40000</dim>
					<dim>3</dim>
				</port>
			</output>
		</layer>
		<layer id="13" name="16/sink_port_0" type="Result" version="opset1">
			<input>
				<port id="0">
					<dim>40000</dim>
					<dim>3</dim>
				</port>
			</input>
		</layer>
	</layers>
	<edges>
		<edge from-layer="0" from-port="0" to-layer="2" to-port="0"/>
		<edge from-layer="1" from-port="1" to-layer="2" to-port="1"/>
		<edge from-layer="2" from-port="2" to-layer="3" to-port="0"/>
		<edge from-layer="3" from-port="1" to-layer="5" to-port="0"/>
		<edge from-layer="4" from-port="1" to-layer="5" to-port="1"/>
		<edge from-layer="5" from-port="2" to-layer="6" to-port="0"/>
		<edge from-layer="6" from-port="1" to-layer="8" to-port="0"/>
		<edge from-layer="7" from-port="1" to-layer="8" to-port="1"/>
		<edge from-layer="8" from-port="2" to-layer="9" to-port="0"/>
		<edge from-layer="9" from-port="1" to-layer="11" to-port="0"/>
		<edge from-layer="10" from-port="1" to-layer="11" to-port="1"/>
		<edge from-layer="11" from-port="2" to-layer="12" to-port="0"/>
		<edge from-layer="12" from-port="1" to-layer="13" to-port="0"/>
	</edges>
	<meta_data>
		<MO_version value="2020.1.0-61-gd349c3ba4a"/>
		<cli_parameters>
			<batch value="40000"/>
			<blobs_as_inputs value="True"/>
			<caffe_parser_path value="DIR"/>
			<data_type value="float"/>
			<disable_nhwc_to_nchw value="False"/>
			<disable_omitting_optional value="False"/>
			<disable_resnet_optimization value="False"/>
			<enable_concat_optimization value="False"/>
			<enable_flattening_nested_params value="False"/>
			<enable_ssd_gluoncv value="False"/>
			<extensions value="DIR"/>
			<framework value="onnx"/>
			<freeze_placeholder_with_value value="{}"/>
			<generate_deprecated_IR_V2 value="False"/>
			<generate_deprecated_IR_V7 value="False"/>
			<generate_experimental_IR_V10 value="True"/>
			<input_model value="DIR\arts_model_40000.onnx"/>
			<input_model_is_text value="False"/>
			<k value="DIR\CustomLayersMapping.xml"/>
			<keep_quantize_ops_in_IR value="True"/>
			<keep_shape_ops value="False"/>
			<legacy_mxnet_model value="False"/>
			<log_level value="ERROR"/>
			<mean_scale_values value="{}"/>
			<mean_values value="()"/>
			<model_name value="arts_model_40000"/>
			<move_to_preprocess value="False"/>
			<output_dir value="DIR"/>
			<placeholder_data_types value="{}"/>
			<progress value="False"/>
			<remove_memory value="False"/>
			<remove_output_softmax value="False"/>
			<reverse_input_channels value="False"/>
			<save_params_from_nd value="False"/>
			<scale_values value="()"/>
			<silent value="False"/>
			<stream_output value="False"/>
			<unset unset_cli_parameters="counts, disable_fusing, disable_gfusing, finegrain_fusing, input, input_checkpoint, input_meta_graph, input_proto, input_shape, input_symbol, mean_file, mean_file_offsets, nd_prefix_name, output, placeholder_shapes, pretrained_model_name, saved_model_dir, saved_model_tags, scale, tensorboard_logdir, tensorflow_custom_layer_libraries, tensorflow_custom_operations_config_update, tensorflow_object_detection_api_pipeline_config, tensorflow_operation_patterns, tensorflow_subgraph_patterns, tensorflow_use_custom_operations_config, transformations_config"/>
		</cli_parameters>
	</meta_data>
</net>
